…
    "title": "BERT Vectors Correction Data",
    "section": "Training",
    "text": "Training\n\n\nvalidate_model\n\n validate_model (model, dataloader, device)\n\n\ndevice = torch.device(\"cuda\" if torch.cuda.is_available() else \"cpu\")\n\nbatch_size = 2\nhidden_size = 768\ndropout = 0.1\nmax_token_len = 10\n\nmodel = SimpleCorrectionSeq2seq(\n    len(vocab_transform[\"ocr\"]),\n    hidden_size,\n    len(vocab_transform[\"gs\"]),\n    dropout,\n    max_token_len,\n    teacher_forcing_ratio=0.5,\n    device=device,\n)\nmodel.to(device)\n\nSimpleCorrectionSeq2seq(\n  (encoder): EncoderRNN(\n    (embedding): Embedding(46, 768)\n    (gru): GRU(768, 768, batch_first=True)\n  )\n  (decoder): AttnDecoderRNN(\n    (embedding): Embedding(44, 768)\n    (attn): Linear(in_features=1536, out_features=11, bias=True)\n    (attn_combine): Linear(in_features=1536, out_features=768, bias=True)\n    (dropout): Dropout(p=0.1, inplace=False)\n    (gru): GRU(768, 768)\n    (out): Linear(in_features=768, out_features=44, bias=True)\n  )\n)\n\n\n\nsplit_name = \"val\"\ndata_csv = Path(os.getcwd()) / \"data\" / \"correction\" / \"dataset.csv\"\ndata = pd.read_csv(data_csv, index_col=0)\ndata.fillna(\"\", inplace=True)\nbert_vectors_file = Path(os.getcwd()) / \"data\" / \"correction\" / \"bert-vectors.hdf5\"\n\nval = BertVectorsCorrectionDataset(\n    data=data.query(f\"dataset == '{
…
    "crumbs": [
      "Error Correction"
    ]
  },
  {
    "objectID": "error_correction.html#evaluation",
    "href": "error_correction.html#evaluation",
    "title": "Error Correction",
    "section": "Evaluation",
    "text": "Evaluation\n\nmodel_save_path = Path(os.getcwd()) / \"data\" / \"model.rar\"\n\ncheckpoint = torch.load(model_save_path)\nmodel.load_state_dict(checkpoint[\"model_state_dict\"])\noptimizer = torch.optim.Adam(model.parameters())\noptimizer.load_state_dict(checkpoint[\"optimizer_state_dict\"])\nmodel.eval()\n\nSimpleCorrectionSeq2seq(\n  (encoder): EncoderRNN(\n    (embedding): Embedding(46, 5)\n    (gru): GRU(5, 5, batch_first=True)\n  )\n  (decoder): AttnDecoderRNN(\n    (embedding): Embedding(44, 5)\n    (attn): Linear(in_features=10, out_features=11, bias=True)\n    (attn_combine): Linear(in_features=10, out_features=5, bias=True)\n    (dropout): Dropout(p=0.1, inplace=False)\n    (gru): GRU(5, 5)\n    (out): Linear(in_features=5, out_features=44, bias=True)\n  )\n)\n\n\n\n\nindices2string\n\n indices2string (indices, itos)\n\n\nindices = torch.tensor(\n    [\n        [20, 34, 22, 6, 1, 1, 1, 1, 1, 1],\n        [22, 6, 1, 1, 1, 1, 1, 1, 1, 1],\n        [21, 1, 1, 1, 1, 1, 1, 1, 1, 1],\n        [4, 5, 6, 4, 1, 1, 1, 1, 1, 1],\n        [29, 1, 1, 1, 1, 1, 1, 1, 1, 1],\n    ]\n)\nindices2string(indices, vocab_tr
…
